…
 training data is reproducible.\nLet’s look at the 1st training pair.\n\ncell_segmenter_visualize( train_images[0], train_masks[0] )\n\nDetected 11 cells\n\n\n\n\n\nAll looks great, ready to setup the training!\n\n# Initialize model\nmodel = models.CellposeModel(gpu=True, model_type='bact_phase_omni')\n\nmodel_type argument is not used in v4.0.1+. Ignoring this argument...\n\n\nLet’s take a quick look at the architecture of the underlying NN. It is a Transformer, a widely-used architecture.\n\nmodel.net\n\nTransformer(\n  (encoder): ImageEncoderViT(\n    (patch_embed): PatchEmbed(\n      (proj): Conv2d(3, 1024, kernel_size=(8, 8), stride=(8, 8))\n    )\n    (blocks): ModuleList(\n      (0-23): 24 x Block(\n        (norm1): LayerNorm((1024,), eps=1e-06, elementwise_affine=True)\n        (attn): Attention(\n          (qkv): Linear(in_features=1024, out_features=3072, bias=True)\n          (proj): Linear(in_features=1024, out_features=1024, bias=True)\n        )\n        (norm2): LayerNorm((1024,), eps=1e-06, elementwise_affine=True)\n        (mlp): MLPBlock(\n          (lin1): Linear(in_features=1024, out_features=4096, bias=True)\n          (lin2): Linear(in_features=4096, out_features=1024, bias=True)\n          (act): GELU(approximate='none')\n        )\n      )\n    )\n    (neck): Sequential(\n      (0): Conv2d(1024, 256, kernel_size=(1, 1), stride=(1, 1), bias=False)\n      (1): LayerNorm2d()\n      (2): Conv2d(256, 256, kernel_size=(3, 3), stride=(1, 1), padding=(1, 1), bias=False)\n      (3): LayerNorm2d()\n    )\n  )\n  (out): Conv2d(256, 192, kernel_size=(1, 1), stride=(1, 1))\n)\n\n\nWe ready to start the training.\nThere is one remark to do here, though. We trained this about 500 epochs, which we had to stop on a Mac Pro after 1h and moved to an NVIDIA GPU machine from our group. This then took about 10min Alternatively, you can download a pre-trained model from:\nhttps://huggingface.co/mfuegger/ecoli_model\nYou can do this
…
